PitchLSTM_iteration_4050.pt (torch_old, 4630 bytes, 32 tensors)

lstm.weight_ih_l0 f4 [4, 1]
00000000: d479 75be 2ad3 453f e890 d83d 1671 563f
-0.23972255 0.77275336 0.10574514 0.83766305

lstm.weight_hh_l0 f4 [4, 1]
00000000: ea65 6bbf 16f6 7fbf b10c 553f 6272 0a3f
-0.91952384 -0.9998487 0.8322249 0.54080784

lstm.bias_ih_l0 f4 [4]
00000000: 0479 533f 76bd 3b3f 056b 45bf 9835 aabe
0.8260653 0.7333597 -0.77116424 -0.33244014

lstm.bias_hh_l0 f4 [4]
00000000: 8aba 673e 1893 163e bc1a c33e d430 43bf
0.22629753 0.1470455 0.38106334 -0.7624638

lstm.weight_ih_l1 f4 [4, 1]
00000000: 778a c73e 9fa0 823e a9fd 463f 7dbe f33e
0.38972828 0.2551317 0.77730805 0.4760627

lstm.weight_hh_l1 f4 [4, 1]
00000000: d189 4e3f 9fdd 7f3e 3e9a 1bbf 59d2 573f
0.8067904 0.24986885 -0.6078223 0.8430534

lstm.bias_ih_l1 f4 [4]
00000000: 6f9c 803f 4512 11bf 455e 2e3f 49fe 463e
1.004774 -0.566685 0.68112594 0.1943294

lstm.bias_hh_l1 f4 [4]
00000000: a99f 7abf 1d6a 5a3e 1ae4 df3d 1248 68bf
-0.9789987 0.21329542 0.10932179 -0.9073497

lstm.weight_ih_l2 f4 [4, 1]
00000000: 2893 41be 5910 0b3e ff30 0abf 28a4 8c3d
-0.18903792 0.13580455 -0.5398101 0.06867248

lstm.weight_hh_l2 f4 [4, 1]
00000000: 1b32 16be fea6 67bf 0641 a2be 4ab9 a23e
-0.14667551 -0.90489185 -0.31690234 0.3178199

lstm.bias_ih_l2 f4 [4]
00000000: 58e3 d53d 7a84 e5bd 658e 84be 1a4c 1d3e
0.10443753 -0.112069085 -0.25889888 0.15361062

lstm.bias_hh_l2 f4 [4]
00000000: acf1 dabe b6a2 46bd 7796 a6be 2869 67be
-0.42762506 -0.048495017 -0.3253667 -0.22598708

lstm.weight_ih_l3 f4 [4, 1]
00000000: 0f28 1abf 04a1 79bd b953 5abf d920 493f
-0.60217375 -0.060944572 -0.85284 0.78565747

lstm.weight_hh_l3 f4 [4, 1]
00000000: d2ff 0dbf 0152 f6be 708f 15bd 038f 623e
-0.55468476 -0.4810944 -0.036513746 0.22124867

lstm.bias_ih_l3 f4 [4]
00000000: 7666 bd3e 545f 06bf d11e 6e3f 231e e9be
0.36992234 -0.5248921 0.9301577 -0.45530805

lstm.bias_hh_l3 f4 [4]
00000000: 08d8 edbe e58a aabc e914 eebd 7ee6 cf3e
-0.4645388 -0.020818183 -0.11625082 0.4060554

lstm.weight_ih_l4 f4 [4, 1]
00000000: 6adb a53e 3143 03bf 266e a43e 8951 1c3e
0.32393962 -0.512744 0.32115287 0.15265478

lstm.weight_hh_l4 f4 [4, 1]
00000000: e8a9 863e a3c2 833d b9a2 e9be 4d18 883e
0.26301503 0.064336084 -0.4563196 0.2658104

lstm.bias_ih_l4 f4 [4]
00000000: 2582 76bd 3622 ca3e d1fd 00bf 48e3 803f
-0.06018271 0.39479226 -0.50387293 1.0069361

lstm.bias_hh_l4 f4 [4]
00000000: d475 0fbf 9274 62be 7dbf 8f3f abf8 e4be
-0.56039166 -0.2211478 1.1230313 -0.4472097

lstm.weight_ih_l5 f4 [4, 1]
00000000: 24d2 86bf 86f2 25bf 1565 aa3e c981 0ebf
-1.053288 -0.64823186 0.33280244 -0.55666786

lstm.weight_hh_l5 f4 [4, 1]
00000000: 3d3c b1bd 01e4 78bf 9e18 13be abfb f13e
-0.08654068 -0.97222906 -0.1436486 0.4726232

lstm.bias_ih_l5 f4 [4]
00000000: 358f 2d3f 9af9 5ebf 91fe 243f fbb2 9dbf
0.6779664 -0.8709961 0.6445094 -1.2320246

lstm.bias_hh_l5 f4 [4]
00000000: 24a4 083f 79fb 84bd abf4 9abe 1560 8cbf
0.5337546 -0.06493277 -0.30264792 -1.0966822

lstm.weight_ih_l6 f4 [4, 1]
00000000: 5086 593f 7bec ab3d 7f6b f33d 1f50 a8be
0.8497057 0.083947144 0.11885738 -0.32873628

lstm.weight_hh_l6 f4 [4, 1]
00000000: 486a 67bc 6f4c 8dbf 6469 e5be 9e45 dcbe
-0.0141244605 -1.1038951 -0.4480697 -0.43021864

lstm.bias_ih_l6 f4 [4]
00000000: e89b 50bd d602 02bf 4e9c 95bf 37ed 2a3f
-0.050929934 -0.5078558 -1.1688325 0.6676821

lstm.bias_hh_l6 f4 [4]
00000000: b138 9c3e b0f0 963f d815 3f3d 03cf 6d3f
0.30512002 1.1792202 0.04665169 0.92894

lstm.weight_ih_l7 f4 [4, 1]
00000000: f7db 0640 f978 553f e0a3 cd3e 529f 5640
2.1071756 0.83387715 0.4016409 3.3534741

lstm.weight_hh_l7 f4 [4, 1]
00000000: 66bc c2be f85a 253e fc95 3a3d acdb 5a3f
-0.38034362 0.16147983 0.045553192 0.8549144

lstm.bias_ih_l7 f4 [4]
00000000: 5759 3dc0 8f95 ecbf 445f 19be d909 3ac0
-2.9585779 -1.8483142 -0.14977747 -2.906851

lstm.bias_hh_l7 f4 [4]
00000000: 08fa 56c0 b172 02c0 1153 fc3e 82ee 48c0
-3.3590107 -2.0382502 0.49282125 -3.1395574
